…
y initialized model\n\n\n\nmodel.summary()\n\nModel: \"CNN_Virus\"\n__________________________________________________________________________________________________\n Layer (type)                   Output Shape         Param #     Connected to                     \n==================================================================================================\n input-seq (InputLayer)         [(None, 50, 5)]      0           []                               \n                                                                                                  \n conv-1 (Conv1D)                (None, 50, 512)      13312       ['input-seq[0][0]']              \n                                                                                                  \n bn-1 (BatchNormalization)      (None, 50, 512)      2048        ['conv-1[0][0]']                 \n                                                                                                  \n maxpool-1 (MaxPooling1D)       (None, 25, 512)      0           ['bn-1[0][0]']                   \n                                                                                                  \n conv-2 (Conv1D)                (None, 25, 512)      1311232     ['maxpool-1[0][0]']              \n                                                                                                  \n bn-2 (BatchNormalization)      (None, 25, 512)      2048        ['conv-2[0][0]']                 \n                                                                                                  \n maxpool-2 (MaxPooling1D)       (None, 13, 512)      0           ['bn-2[0][0]']                   \n                                                                                                  \n conv-3 (Conv1D)                (None, 13, 1024)     3671040     ['maxpool-2[0][0]']              \n                                                                                                  \n conv-4 (Conv1D)                (None, 13, 1024)     7341056     ['conv-3[0][0]']                 \n                                                                                                  \n bn-3 (BatchNormalization)      (None, 13, 1024)     4096        ['conv-4[0][0]']                 \n                                                                                                  \n maxpool-3 (MaxPooling1D)       (None, 7, 1024)      0           ['bn-3[0][0]']                   \n                                                                                                  \n flatten (Flatten)              (None, 7168)         0           ['maxpool-3[0][0]']              \n                                                                                                  \n dense-1 (Dense)                (None, 1024)         7341056     ['flatten[0][0]']                \n                                                                                                  \n bn-4 (BatchNormalization)      (None, 1024)         4096        ['dense-1[0][0]']                \n                                                                                                  \n do-1 (Dropout)                 (None, 1024)         0           ['bn-4[0][0]']                   \n                                                                                                  \n labels (Dense)                 (None, 187)          191675      ['do-1[0][0]']                   \n                                                                                                  \n concat (Concatenate)           (None, 1211)         0           ['do-1[0][0]',                   \n                                                                  'labels[0][0]']                 \n                                                                                                  \n dense-2 (Dense)                (None, 1024)         1241088     ['concat[0][0]']                 \n                                                                                                  \n bn-5 (BatchNormalization)      (None, 1024)         4096        ['dense-2[0][0]']                \n                                                                                                  \n pos (Dense)                    (None, 10)           10250       ['bn-5[0][0]']                   \n                                                                                                  \n==================================================================================================\nTotal params: 21,137,093\nTrainable params: 21,128,901\nNon-trainable params: 8,192\n__________________________________________________________________________________________________\n\n\n\nmodel = create_model_original(load_parameters=True)\n\nCreating CNN Model (Original)\nLoading parameters from pretrained_model.h5\nCreated pretrained model",
…
